version_0/best_val_model.pt (torch, 144114 bytes, 29 tensors)

model.encoder.model.tcn_block_00.conv0.bias f4 [32]
00000000: 85a8 043d 1feb 47bd 8b1b 273c 61ca b9bd
00000010: f1ae a33b 656d 8f3d df2d ecbd 87f5 203c
00000020: 0585 14bc 916a d1bc b7a6 b4bc 8ba6 ecbd
00000030: e2f7 05be 455e 03bd 5f9e 0bbe e039 10bb
00000040: 3eca cfbd 2a6f 093d 91e6 083d 9eac 00bc
00000050: 4b85 4b3d e43a 99bb 3c2c 953d 68cc b5bd
00000060: 848d 033b ac83 41bc 0a81 36bc f66d a4bd
00000070: bf67 01bd d18c b1bb c52b 97bc be31 78bd
0.032387275 -0.048808213 0.010199438 -0.09071804 0.00499522 0.07003287 -0.11532187 0.009824163
-0.009064917 -0.02556351 -0.022052152 -0.11555203 -0.13082841 -0.032072324 -0.13634633 -0.0022007152
-0.101459965 0.03355328 0.03342301 -0.007853655 0.049687665 -0.0046762098 0.07283828 -0.08876878
0.0020073364 -0.011811178 -0.011139164 -0.08028786 -0.03159308 -0.005418398 -0.018453488 -0.060594313

model.encoder.model.tcn_block_00.conv0.weight_g f4 [32, 1, 1]
00000000: 5557 233f 3eaf 0c3f 311c 1f3f 3d00 233f
00000010: 9453 2c3f 1d75 1d3f 4a65 1c3f 075d 3d3f
00000020: 8e0e 193f e04f 1b3f eb19 193f c742 113f
00000030: 2d83 183f 59b5 183f 192b 123f 8009 273f
00000040: be6b 243f 8253 113f cc84 0f3f 69f8 1f3f
00000050: 1503 273f 69c6 183f 378d 2a3f d254 1a3f
00000060: 035c 333f 2c1d 223f 35ac 1a3f 11d5 1d3f
00000070: eb5f 153f 6057 163f 1e6a 1d3f 0348 1c3f
0.63805133 0.549549 0.6215239 0.6367224 0.6731503 0.61506826 0.61092055 0.73970073
0.59787834 0.60668755 0.5980517 0.5674252 0.5957516 0.59651715 0.5709701 0.6524887
0.642269 0.5676805 0.56062007 0.6248842 0.6523908 0.5967775 0.66621727 0.60285676
0.70062274 0.6332576 0.6041902 0.6165324 0.58349484 0.58727074 0.61490047 0.6104738

model.encoder.model.tcn_block_00.conv0.weight_v f4 [32, 18, 9]
00000000: 7d96 7bbc 2188 d33c c8ad 89bd 158f 6cbd
00000010: c4fb dbbc 9959 e93c f1b8 9d3c c335 b43d
00000020: 12eb 0b3d 75a3 903c faa1 a7bc 7ede 1cbc
00000030: 6dfb 81bd 3141 22bd f19e 98bc 071e 8b3c
00000040: 0365 373d 9e02 743d a0ac 10bd fbf7 dabc
00000050: a51e d73c 0801 613d 2237 f2bc 9075 0d3d
00000060: 5993 2ebd 7023 fcbc 36f1 ba3c 6e3c 73bd
00000070: 2c62 18bd aad5 0ebc fe1d 8bbc b08d 993d
00000080: b0b0 05bd 32b1 81bc 7af3 e8bc f942 21bd
00000090: 5ad6 ddbc 61b3 a73d 6b47 683d 42d1 803d
000000a0: 1664 0e3d d0f5 19bb 8064 533d 327e b5bc
000000b0: 26aa 08bb bac1 74bd 909c f33c 19f4 fd3c
000000c0: 0e24 28bd 6f8e d5bb c2b6 443d 809c a03d
000000d0: cef8 193d 62e3 af3c 868f 363c 6e90 a0bd
000000e0: 5928 80bc a9c7 a8bd c931 92bd 30ed 59bd
000000f0: c2ce c63c 9f11 ca3c d1c4 3dbd 1f7e 4bbc
00000100: 2e38 1d3c aba5 12bd 69bf a0bc a6ef b7ba
00000110: 5b06 013d 037f 793d 8432 81bd 05bf e8bc
00000120: 3ad6 8b3c 708e 5c3d e9ca 793d cf9f 883d
00000130: a9d0 a33c 768f 62bd 1346 ad3c 5494 ebbc
00000140: 227b 43bd a9e7 7b3d 8f81 563d 0473 9dbd
00000150: cf29 4c3c 5177 50bc 72f1 32bc 03af fdbc
00000160: 491d 0e3d 8b98 10bd acc8 2b3d bf68 013d
00000170: 2872 dc3c 063c 78bc 92e3 01be d1a9 e0bd
00000180: fc1a ecbc f642 42bd 2e2c e6bd 916d 32bd
00000190: 2c8f 953d 67e2 723d 1d29 9abc ac46 d2bb
000001a0: af47 7dbd 87e3 adba 8452 84bd 3c88 a0bd
000001b0: 41fc 9c3b 3652 b93c e992 52bc 707c 813d
000001c0: 917d 94bc 3678 c33d 94ac a93d 334a e1bc
000001d0: a034 7f3c 15a5 103c 6f8d cf3c eb80 253d
000001e0: 056b 6f3d 0a6a 283d 44ff 0e3c 79dd ae3d
000001f0: 91ac 2ebc 665f b73c af33 97bc fc69 0fbd
00000200: 33a6 c8bc 9130 73bd e5ad 84bc f419 743c
00000210: bde2 45bd 5030 a5bb 24eb 483d f4d6 fdbb
00000220: d1c6 293b b3ae a8bb 6cda 773c 1689 3a3d
00000230: 00cc 8b3d 8141 3a3d a1f0 8a3d 8f0b 0abc
00000240: 855a 0abe 4289 d0bd cf9d 8cbc 7197 7abd
00000250: b2a1 b8bd 5f7b cebd 761e d2bd bd35 b0bd
00000260: e3fa f2bc cd11 f23c a739 f03c fa3a 9ebd
00000270: c549 133d 042d 83bd ebda b5bc aa57 10bd
00000280: 412c 99bc 09a2 80bc b18c 91bd 1774 82bd
00000290: ff2c 80bb 8a45 793c 4e5e 85bc 458a 5b3d
000002a0: f15f 34bd 143c c73c 7739 d03d 444b 48bd
000002b0: 133a 6d3d ec9d da3c 0d61 80bd 0003 813d
000002c0: b217 1f3c 4305 5bbc 2a69 b03d bef3 28bd
000002d0: b81e fc3b b34f 9bbc 5cb4 4c3d 6406 943c
000002e0: 6ecc 113d 54af f43c e27b 2bbc a106 1abb
000002f0: d28a 2bbd 9252 bf3c 85fb 313d 6b61 1b3d
00000300: b822 7abd f7fd ebba 9ab0 55bd 9f9f 0abd
00000310: 1988 e6bc 7ef7 523d 93ae 78bd 0fc9 12bc
00000320: 7986 da3a f527 563d ae03 48bd 4eae 1ebd
00000330: 1a53 e7bc e818 893d 0b3d 2abc 9ec3 853d
00000340: 7972 093d e8db a13c b4bc 573c 85ea fb3a
00000350: 0300 f53c 6323 aa3b a926 cd3c 9476 1c3d
00000360: 5f5e 89bd fad4 3cbd b99e 663d d88a 80bd
00000370: ef0c 71bb 18d0 a33d 4c79 153d 2715 773c
00000380: d4d4 4abd 66a9 983c d225 89bd 1c25 febc
00000390: 7362 fdbc c82d 50bc fd77 5b3b ffb6 8d3d
000003a0: d125 a83c 1075 ab3d d325 9c3d d480 a4bc
000003b0: 7cf8 783d 1044 e2bc c6de c5bb 9762 4b3d
000003c0: 4cf0 5f3d 8040 b93d 2cf0 4f3c 88d9 d1bc
000003d0: c7d7 643c f6dd c2bd ed76 073d 02a0 a5bd
000003e0: 7a5a 7cbc af8a d4bc 4034 48bd 9937 a03b
000003f0: 931d f13d 636f f53c 1196 6abb cffb a5b9
-0.015355703 0.025821747 -0.06722599 -0.05775364 -0.02685345 0.028485106 0.019253226 0.08799317
0.034159727 0.017656067 -0.020462979 -0.009574531 -0.06346784 -0.039612953 -0.018630477 0.016982092
0.044774067 0.05957281 -0.035320878 -0.026729574 0.02625973 0.054932624 -0.029567305 0.034535944
-0.04262099 -0.030778617 0.022820096 -0.059383802 -0.037203 -0.008717934 -0.016982075 0.07497728
-0.032639205 -0.015831564 -0.028436411 -0.03937051 -0.02707975 0.08188511 0.056708734 0.06289913
0.03476342 -0.0023492463 0.051609516 -0.022154901 -0.002085337 -0.059755065 0.02973774 0.031000184
-0.04105001 -0.0065172235 0.048025854 0.0784235 0.037590794 0.02147073 0.011142617 -0.07840048
-0.01564424 -0.08241207 -0.07138402 -0.053204715 0.024268512 0.024666606 -0.046330277 -0.012420206
0.009595914 -0.035802525 -0.019622521 -0.0014033213 0.0315002 0.060912143 -0.06308463 -0.028411398
0.017069925 0.053846776 0.060984526 0.06671106 0.019996958 -0.055312596 0.021151578 -0.028757252
-0.04772485 0.061500225 0.05236965 -0.07687953 0.01246114 -0.01272376 -0.010921823 -0.030967241
0.034695897 -0.035301726 0.041939422 0.031594034 0.026909903 -0.015151029 -0.12684467 -0.1096989
-0.02882146 -0.04742714 -0.11238895 -0.043561522 0.073026985 0.059297945 -0.018818432 -0.006417116
-0.06183594 -0.0013266661 -0.06461051 -0.07838485 0.004790813 0.022622209 -0.012852409 0.06322563
-0.018126281 0.09544413 0.0828487 -0.027501201 0.015576512 0.008828421 0.025335995 0.04040615
0.05845167 0.04111675 0.008727852 0.08538336 -0.01066126 0.022384357 -0.018457262 -0.035013184
-0.024493312 -0.05937249 -0.0161962 0.014898766 -0.048311938 -0.0050411597 0.049052373 -0.0077465717
0.0025905857 -0.005147779 0.015127759 0.04554089 0.06826019 0.045472626 0.067841776 -0.008425607
-0.13511093 -0.1018243 -0.017165093 -0.061179582 -0.09015216 -0.10082125 -0.10259716 -0.08604
-0.029660648 0.029549504 0.029324366 -0.07726093 0.035959024 -0.064050704 -0.022199115 -0.035239853
-0.01869786 -0.015702264 -0.07106913 -0.06369799 -0.003911614 0.015214333 -0.01628032 0.05359866
-0.04403681 0.02432064 0.101672105 -0.048899904 0.057916712 0.026686631 -0.06268511 0.062994
0.009710239 -0.013367954 0.086138085 -0.041248076 0.0076940916 -0.018958902 0.04997669 0.018069454
0.03559535 0.02986876 -0.010466548 -0.0023502486 -0.041880436 0.023354802 0.04345276 0.037934702
-0.061068267 -0.0018004765 -0.052170373 -0.033843633 -0.028141068 0.05150556 -0.060713362 -0.008959069
0.0016672156 0.0522842 -0.048831634 -0.03874045 -0.028237868 0.066942036 -0.01039053 0.06531452
0.033556435 0.01975818 0.013167549 0.0019219673 0.029907232 0.0051922067 0.025042849 0.038199022
-0.06707453 -0.046101548 0.056303713 -0.06276482 -0.003678139 0.07998675 0.03649263 0.015080727
-0.049519375 0.018635463 -0.06696667 -0.031023555 -0.030930733 -0.012706228 0.0033488267 0.06919669
0.020525845 0.08371937 0.07624402 -0.020080961 0.06078385 -0.027620345 -0.0060385196 0.04965457
0.054672524 0.090455055 0.012691539 -0.025616422 0.013967461 -0.09514992 0.0330724 -0.0808716
-0.015402431 -0.025945036 -0.048877954 0.0048894403 0.11773219 0.02996034 -0.0035795013 -0.00031658864

model.encoder.model.tcn_block_00.conv1.bias f4 [32]
00000000: d30d 133c 6286 973d 45fd cb3c 8110 c83c
00000010: 65ab 10bd 1d90 763c c6ce a8bd 685f 093d
00000020: f982 49bd 8719 f8bc 4179 183d 23b3 483d
00000030: 14c4 72bd c564 4a3d ea4e 4d3d f0c8 21bc
00000040: 2727 543d b7ee b03d 59f9 c5bc c8f1 aebc
00000050: e568 ec3c ecab d7bd 9be8 d43b 693f 0c3d
00000060: 7eb2 6c3c 47ce a13c 40ed c73d 842f cc3c
00000070: 2fd0 973d 2b5c bcbc 143c 1e3d 5fce 95bc
0.008975464 0.07398678 0.024901042 0.024421932 -0.035319705 0.015049008 -0.08242564 0.033538252
-0.04919717 -0.03028561 0.03722501 0.048998963 -0.059269026 0.049412508 0.050124086 -0.009874567
0.05179515 0.08639281 -0.02416675 -0.021355525 0.028858611 -0.10530838 0.0064974553 0.03424016
0.014446853 0.019751681 0.09762049 0.024925001 0.07412755 -0.022993168 0.038631514 -0.018286882

model.encoder.model.tcn_block_00.conv1.weight_g f4 [32, 1, 1]
00000000: 2e2a 273f 5287 193f 7c87 173f cd94 2a3f
00000010: 2a14 263f 886e 1a3f 5b7f 113f 58cb 243f
00000020: 56a0 223f 2bc5 223f 1eef 243f 7d0b 1e3f
00000030: 817f 203f ed22 173f be98 233f 04ee 233f
00000040: 8d65 2e3f 5cc0 1d3f 2843 273f 6001 233f
00000050: 3807 0c3f 2404 183f f044 253f 9450 2b3f
00000060: 5825 263f 34d2 243f 563f 283f e66d 1c3f
00000070: b245 233f 581a 1f3f ddad 253f fab2 1e3f
0.65298736 0.5997211 0.5919111 0.666333 0.6487452 0.6032491 0.56834954 0.6437278
0.63525903 0.63582104 0.64427364 0.6173628 0.62694556 0.5903767 0.6390494 0.6403506
0.68123704 0.6162164 0.6533685 0.63673973 0.54698515 0.5938132 0.64558315 0.6691983
0.6490073 0.64383245 0.6572164 0.6110519 0.6377822 0.6214957 0.6471842 0.61991847

model.encoder.model.tcn_block_00.conv1.weight_v f4 [32, 32, 9]
00000000: 5434 13bd 55c4 8b3c 3577 3dbd 6142 fabb
00000010: 62ae 26bd 4dad 1b3d 175d 353d eabc 98bc
00000020: 7b7f 87bc 818f eabc a885 743c e765 c7bc
00000030: 8af6 16bc 5ae1 d2bb a57f a23c aab5 25bc
00000040: 3da0 273d 5b2f 9ebc 8513 da3a cd98 4e3d
00000050: 9232 e8bc 2d43 2a3d 6b63 cd3c 190f c7bc
00000060: 42a0 2a3c 7af6 40bd f80f b7bb 2459 8d3d
00000070: d722 c93d 0f04 403c b3e0 a23b 26c9 f93a
00000080: 73d5 02bd a4ee d93c c5fc 15bd fa7b 32bc
00000090: 7d19 87bd 63f1 5ebd ac97 45bd e0fc a9bd
000000a0: aac9 84bd 38ab 54bd 4ba9 87bd 7a51 e2bc
000000b0: 0c3e 6dbc 0c3f 86bd 7cdc ad3b 3ce9 813b
000000c0: 12f3 24bd 8ca2 83bc 69ce 7bbc 9ae9 d3bc
000000d0: 92e7 48bd 2d1c d43c 9aa0 a63d a84b 573c
000000e0: 9913 2c3c 5853 ad3d 3d85 3c3d ee10 c83c
000000f0: 09ac 7d3d 846e 2c3d 401b 2b3d 7c31 4a3d
00000100: 3c83 3ab9 a3b2 4d3d f51b 23bd 6baa 1bbd
00000110: 9633 b1ba 7e9c a1bc cea6 423c ca93 0abd
00000120: f6e5 ef3a b9ee 8dbc 5290 013d 086f 14bc
00000130: 49e7 3bbb e18b 123d 148e 4c3d 51ce 503d
00000140: cb59 44bd cbb2 06bd 0c22 92bc f283 92bc
00000150: 19c5 8f3c ad8e 3a3c 75c9 73bc f18b 36bc
00000160: 464f 7bbb 7743 d63c 9540 353d a70e 31bc
00000170: 835e 68bc c3dc c73c 47e4 02ba f1d3 00bd
00000180: a84d 4dbd b1b6 5a3b f950 a8bc 2eb5 19bd
00000190: 2b91 62ba 5766 163d 3c88 ec3c 654d 7b3c
000001a0: 6002 59bd aaae 493c 18b4 243c e249 8c3b
000001b0: 26f6 d4bc d757 20bc 10c3 edbc 922d 3cbc
000001c0: ff7e adbb 0c02 5bbb c692 32bd 6866 993c
000001d0: 16fc 19bd 46e0 a2ba d7d4 4e3d 3d3d b8bc
000001e0: aa0b 613d 3087 2a3d e15e 07bd f0ce 14bd
000001f0: 6ee5 95bd 92db 24bd b011 0e3c cd3d 07bd
00000200: af76 09bb 9ebf bfbc 0af3 16bd 9cbf d6bc
00000210: a40d 86bd b1f6 49bd d112 9bbb e425 1c3d
00000220: 5b2c 16bd 8270 eb3c 9320 c53b 4c05 80bc
00000230: 48c8 433c f17e 2b3d ac9c ea3c fbb2 953d
00000240: ad64 d43d eba6 8c3d 80ea 063e cf62 8b3d
00000250: d320 cf3d db1b c33d 64d2 8b3d 190f 8c3c
00000260: d4f3 ae3b 50d8 573d 9ad9 1e3d 5cc9 643d
00000270: 7351 dbbc 0f6e 493c 7d65 843d fdcc 313d
00000280: a1ef 6d3d 150d 5b3d bcbe 3abc eb12 18bd
00000290: 6e75 08bd 51d1 803c b354 b1bc a88d b13a
000002a0: ceb4 4e3c 8bbc 223d 9323 233d 7456 f93c
000002b0: ab62 8b3b b79b 053d d665 7bbc 5fd0 b5bb
000002c0: a149 813c a856 233b d6c7 b83d 44e1 303d
000002d0: 8e76 8f3c 0bd9 313b 221d 8b3b ebcd 8fbc
000002e0: 4ee3 fe3b 3baa dcbc ab1e fbb9 bdc6 883d
000002f0: bf2a 37bc 5c97 bd3c 9685 bf3c 8fb1 0cbd
00000300: df3f da3c a9de 2a3d 4f4e 673d aef4 f03c
00000310: 74f9 773d 6646 ad3c e5a1 d43b 0b3d f3ba
00000320: dd51 55bd dc6c f8bc 8f9d 5bbd bc3c 613c
00000330: 16d4 a93a fa2f 1bbd 2b9a c9bc d5cf 9bbc
00000340: 01ff 92bd 21ad b8bc 2a00 583b e874 4abc
00000350: 7dd6 b5bc 6fcd 873c 4fdc e83b 31a5 72bd
00000360: e89d f73b 3b91 7bbd f652 b13b 2526 a13c
00000370: 4c12 63bc c76c febc f06c 09bd 1550 b6bc
00000380: 6e95 87ba 49fb 52bd ddcd c6bb c8bd 82bd
00000390: 4f96 14bd fb65 b5bd 640b 0ebd 79ed acbc
000003a0: 3a65 9ebd 55a9 69bd a8ce 91bc 5199 9bbd
000003b0: a645 80bd 9d11 87bc 7797 723c 1bf9 0fbd
000003c0: 858a 67bc 2f47 59bd 8b89 3cbd a4e2 153d
000003d0: ed3a fb3c 7792 f1bc a122 1bbd 503a d0bc
000003e0: c814 5abb 59e9 97bd ac74 67bd 8b3e 41bd
000003f0: 86d0 d4bc 1f87 14bc 142c cd3c 38ca 3a3b
-0.035938576 0.017061392 -0.046256263 -0.0076373075 -0.04069365 0.03800707 0.04427823 -0.018644769
-0.01654028 -0.028632881 0.014924444 -0.024340583 -0.009214053 -0.0064355554 0.019836256 -0.010114113
0.0409243 -0.01930969 0.0016637897 0.05043869 -0.028344426 0.04156797 0.02507182 -0.024299191
0.010414185 -0.04711006 -0.0055866204 0.06901768 0.09821098 0.011719718 0.004970634 0.0019057139
-0.031941842 0.02660305 -0.036618013 -0.010893816 -0.065966584 -0.054429423 -0.04824035 -0.08300185
-0.06483777 -0.0519211 -0.06624087 -0.027626742 -0.014480125 -0.06554994 0.005305825 0.0039645713
-0.040270872 -0.01606872 -0.015369036 -0.025868226 -0.049048968 0.025892342 0.08136101 0.013140596
0.010502719 0.08463162 0.046025503 0.024422135 0.061931644 0.042097583 0.041774035 0.0493636
-0.00017787231 0.05021919 -0.039821584 -0.03800432 -0.0013519402 -0.019727942 0.01188059 -0.03383235
0.0018302787 -0.017325746 0.031631775 -0.009059675 -0.0028671792 0.03577793 0.049940184 0.05097801
-0.047937196 -0.032885354 -0.0178385 -0.017885182 0.017550038 0.011386556 -0.014879574 -0.011141763
-0.0038346811 0.026155217 0.044251043 -0.010806716 -0.01418269 0.02439726 -0.00049931224 -0.031452123
-0.050122887 0.0033373053 -0.020546423 -0.037526302 -0.00086428475 0.036718693 0.028873555 0.0153382765
-0.05298078 0.01230971 0.010052703 0.0042812685 -0.025996279 -0.009786568 -0.029023677 -0.011485474
-0.00529468 -0.0033417968 -0.043597005 0.018725589 -0.037593924 -0.0012426458 0.05049595 -0.022490138
0.054942764 0.04163283 -0.033049468 -0.036330163 -0.07319151 -0.04024846 0.008671209 -0.033017922
-0.0020975282 -0.0234068 -0.036852874 -0.026214413 -0.065455705 -0.04930753 -0.0047324677 0.038122073
-0.036663394 0.028740171 0.006015846 -0.015627526 0.011949606 0.041869108 0.02863916 0.073095284
0.10370765 0.068677746 0.13175392 0.068059556 0.101136826 0.095267974 0.06827238 0.017097043
0.005339125 0.052696526 0.03878174 0.055856094 -0.026772236 0.012294306 0.0646467 0.043408383
0.058089856 0.053479273 -0.011398014 -0.037127417 -0.033315115 0.01572481 -0.021646833 0.0013546245
0.012616349 0.03973059 0.039828848 0.030436732 0.0042537055 0.032619204 -0.015344104 -0.0055485214
0.01578218 0.0024923477 0.09022491 0.04318358 0.017512586 0.0027137424 0.0042454163 -0.017554244
0.0077785617 -0.026936641 -0.000478973 0.06678531 -0.011179625 0.023143463 0.023379128 -0.03434902
0.026641784 0.04171625 0.056471165 0.029413547 0.06054063 0.021151733 0.006489026 -0.0018557621
-0.052080024 -0.030325346 -0.053617056 0.01374739 0.0012956883 -0.03788755 -0.024609646 -0.01902
-0.071775444 -0.022543492 0.0032959082 -0.012356974 -0.022197003 0.01657745 0.007106341 -0.05923957
0.0075566657 -0.0614178 0.005411501 0.019671509 -0.013859343 -0.031057728 -0.033551157 -0.022254983
-0.0010344216 -0.051509175 -0.0060670213 -0.06383854 -0.036276158 -0.08857342 -0.03467883 -0.02110933
-0.07734151 -0.057046253 -0.017798737 -0.07597602 -0.062632844 -0.01648789 0.01480662 -0.035149675
-0.014132147 -0.0530464 -0.04602961 0.036593094 0.030667746 -0.029488785 -0.03787482 -0.02541843
-0.0033276547 -0.074175544 -0.05650775 -0.047178786 -0.025978338 -0.0090654185 0.025045432 0.002850188

model.encoder.model.tcn_block_00.block.conv1d_layer_0.bias f4 [32]
00000000: 85a8 043d 1feb 47bd 8b1b 273c 61ca b9bd
00000010: f1ae a33b 656d 8f3d df2d ecbd 87f5 203c
00000020: 0585 14bc 916a d1bc b7a6 b4bc 8ba6 ecbd
00000030: e2f7 05be 455e 03bd 5f9e 0bbe e039 10bb
00000040: 3eca cfbd 2a6f 093d 91e6 083d 9eac 00bc
00000050: 4b85 4b3d e43a 99bb 3c2c 953d 68cc b5bd
00000060: 848d 033b ac83 41bc 0a81 36bc f66d a4bd
00000070: bf67 01bd d18c b1bb c52b 97bc be31 78bd
0.032387275 -0.048808213 0.010199438 -0.09071804 0.00499522 0.07003287 -0.11532187 0.009824163
-0.009064917 -0.02556351 -0.022052152 -0.11555203 -0.13082841 -0.032072324 -0.13634633 -0.0022007152
-0.101459965 0.03355328 0.03342301 -0.007853655 0.049687665 -0.0046762098 0.07283828 -0.08876878
0.0020073364 -0.011811178 -0.011139164 -0.08028786 -0.03159308 -0.005418398 -0.018453488 -0.060594313

model.encoder.model.tcn_block_00.block.conv1d_layer_0.weight_g f4 [32, 1, 1]
00000000: 5557 233f 3eaf 0c3f 311c 1f3f 3d00 233f
00000010: 9453 2c3f 1d75 1d3f 4a65 1c3f 075d 3d3f
00000020: 8e0e 193f e04f 1b3f eb19 193f c742 113f
00000030: 2d83 183f 59b5 183f 192b 123f 8009 273f
00000040: be6b 243f 8253 113f cc84 0f3f 69f8 1f3f
00000050: 1503 273f 69c6 183f 378d 2a3f d254 1a3f
00000060: 035c 333f 2c1d 223f 35ac 1a3f 11d5 1d3f
00000070: eb5f 153f 6057 163f 1e6a 1d3f 0348 1c3f
0.63805133 0.549549 0.6215239 0.6367224 0.6731503 0.61506826 0.61092055 0.73970073
0.59787834 0.60668755 0.5980517 0.5674252 0.5957516 0.59651715 0.5709701 0.6524887
0.642269 0.5676805 0.56062007 0.6248842 0.6523908 0.5967775 0.66621727 0.60285676
0.70062274 0.6332576 0.6041902 0.6165324 0.58349484 0.58727074 0.61490047 0.6104738

model.encoder.model.tcn_block_00.block.conv1d_layer_0.weight_v f4 [32, 18, 9]
00000000: 7d96 7bbc 2188 d33c c8ad 89bd 158f 6cbd
00000010: c4fb dbbc 9959 e93c f1b8 9d3c c335 b43d
00000020: 12eb 0b3d 75a3 903c faa1 a7bc 7ede 1cbc
00000030: 6dfb 81bd 3141 22bd f19e 98bc 071e 8b3c
00000040: 0365 373d 9e02 743d a0ac 10bd fbf7 dabc
00000050: a51e d73c 0801 613d 2237 f2bc 9075 0d3d
00000060: 5993 2ebd 7023 fcbc 36f1 ba3c 6e3c 73bd
00000070: 2c62 18bd aad5 0ebc fe1d 8bbc b08d 993d
00000080: b0b0 05bd 32b1 81bc 7af3 e8bc f942 21bd
00000090: 5ad6 ddbc 61b3 a73d 6b47 683d 42d1 803d
000000a0: 1664 0e3d d0f5 19bb 8064 533d 327e b5bc
000000b0: 26aa 08bb bac1 74bd 909c f33c 19f4 fd3c
000000c0: 0e24 28bd 6f8e d5bb c2b6 443d 809c a03d
000000d0: cef8 193d 62e3 af3c 868f 363c 6e90 a0bd
000000e0: 5928 80bc a9c7 a8bd c931 92bd 30ed 59bd
000000f0: c2ce c63c 9f11 ca3c d1c4 3dbd 1f7e 4bbc
00000100: 2e38 1d3c aba5 12bd 69bf a0bc a6ef b7ba
00000110: 5b06 013d 037f 793d 8432 81bd 05bf e8bc
00000120: 3ad6 8b3c 708e 5c3d e9ca 793d cf9f 883d
00000130: a9d0 a33c 768f 62bd 1346 ad3c 5494 ebbc
00000140: 227b 43bd a9e7 7b3d 8f81 563d 0473 9dbd
00000150: cf29 4c3c 5177 50bc 72f1 32bc 03af fdbc
00000160: 491d 0e3d 8b98 10bd acc8 2b3d bf68 013d
00000170: 2872 dc3c 063c 78bc 92e3 01be d1a9 e0bd
00000180: fc1a ecbc f642 42bd 2e2c e6bd 916d 32bd
00000190: 2c8f 953d 67e2 723d 1d29 9abc ac46 d2bb
000001a0: af47 7dbd 87e3 adba 8452 84bd 3c88 a0bd
000001b0: 41fc 9c3b 3652 b93c e992 52bc 707c 813d
000001c0: 917d 94bc 3678 c33d 94ac a93d 334a e1bc
000001d0: a034 7f3c 15a5 103c 6f8d cf3c eb80 253d
000001e0: 056b 6f3d 0a6a 283d 44ff 0e3c 79dd ae3d
000001f0: 91ac 2ebc 665f b73c af33 97bc fc69 0fbd
00000200: 33a6 c8bc 9130 73bd e5ad 84bc f419 743c
00000210: bde2 45bd 5030 a5bb 24eb 483d f4d6 fdbb
00000220: d1c6 293b b3ae a8bb 6cda 773c 1689 3a3d
00000230: 00cc 8b3d 8141 3a3d a1f0 8a3d 8f0b 0abc
00000240: 855a 0abe 4289 d0bd cf9d 8cbc 7197 7abd
00000250: b2a1 b8bd 5f7b cebd 761e d2bd bd35 b0bd
00000260: e3fa f2bc cd11 f23c a739 f03c fa3a 9ebd
00000270: c549 133d 042d 83bd ebda b5bc aa57 10bd
00000280: 412c 99bc 09a2 80bc b18c 91bd 1774 82bd
00000290: ff2c 80bb 8a45 793c 4e5e 85bc 458a 5b3d
000002a0: f15f 34bd 143c c73c 7739 d03d 444b 48bd
000002b0: 133a 6d3d ec9d da3c 0d61 80bd 0003 813d
000002c0: b217 1f3c 4305 5bbc 2a69 b03d bef3 28bd
000002d0: b81e fc3b b34f 9bbc 5cb4 4c3d 6406 943c
000002e0: 6ecc 113d 54af f43c e27b 2bbc a106 1abb
000002f0: d28a 2bbd 9252 bf3c 85fb 313d 6b61 1b3d
00000300: b822 7abd f7fd ebba 9ab0 55bd 9f9f 0abd
00000310: 1988 e6bc 7ef7 523d 93ae 78bd 0fc9 12bc
00000320: 7986 da3a f527 563d ae03 48bd 4eae 1ebd
00000330: 1a53 e7bc e818 893d 0b3d 2abc 9ec3 853d
00000340: 7972 093d e8db a13c b4bc 573c 85ea fb3a
00000350: 0300 f53c 6323 aa3b a926 cd3c 9476 1c3d
00000360: 5f5e 89bd fad4 3cbd b99e 663d d88a 80bd
00000370: ef0c 71bb 18d0 a33d 4c79 153d 2715 773c
00000380: d4d4 4abd 66a9 983c d225 89bd 1c25 febc
00000390: 7362 fdbc c82d 50bc fd77 5b3b ffb6 8d3d
000003a0: d125 a83c 1075 ab3d d325 9c3d d480 a4bc
000003b0: 7cf8 783d 1044 e2bc c6de c5bb 9762 4b3d
000003c0: 4cf0 5f3d 8040 b93d 2cf0 4f3c 88d9 d1bc
000003d0: c7d7 643c f6dd c2bd ed76 073d 02a0 a5bd
000003e0: 7a5a 7cbc af8a d4bc 4034 48bd 9937 a03b
000003f0: 931d f13d 636f f53c 1196 6abb cffb a5b9
-0.015355703 0.025821747 -0.06722599 -0.05775364 -0.02685345 0.028485106 0.019253226 0.08799317
0.034159727 0.017656067 -0.020462979 -0.009574531 -0.06346784 -0.039612953 -0.018630477 0.016982092
0.044774067 0.05957281 -0.035320878 -0.026729574 0.02625973 0.054932624 -0.029567305 0.034535944
-0.04262099 -0.030778617 0.022820096 -0.059383802 -0.037203 -0.008717934 -0.016982075 0.07497728
-0.032639205 -0.015831564 -0.028436411 -0.03937051 -0.02707975 0.08188511 0.056708734 0.06289913
0.03476342 -0.0023492463 0.051609516 -0.022154901 -0.002085337 -0.059755065 0.02973774 0.031000184
-0.04105001 -0.0065172235 0.048025854 0.0784235 0.037590794 0.02147073 0.011142617 -0.07840048
-0.01564424 -0.08241207 -0.07138402 -0.053204715 0.024268512 0.024666606 -0.046330277 -0.012420206
0.009595914 -0.035802525 -0.019622521 -0.0014033213 0.0315002 0.060912143 -0.06308463 -0.028411398
0.017069925 0.053846776 0.060984526 0.06671106 0.019996958 -0.055312596 0.021151578 -0.028757252
-0.04772485 0.061500225 0.05236965 -0.07687953 0.01246114 -0.01272376 -0.010921823 -0.030967241
0.034695897 -0.035301726 0.041939422 0.031594034 0.026909903 -0.015151029 -0.12684467 -0.1096989
-0.02882146 -0.04742714 -0.11238895 -0.043561522 0.073026985 0.059297945 -0.018818432 -0.006417116
-0.06183594 -0.0013266661 -0.06461051 -0.07838485 0.004790813 0.022622209 -0.012852409 0.06322563
-0.018126281 0.09544413 0.0828487 -0.027501201 0.015576512 0.008828421 0.025335995 0.04040615
0.05845167 0.04111675 0.008727852 0.08538336 -0.01066126 0.022384357 -0.018457262 -0.035013184
-0.024493312 -0.05937249 -0.0161962 0.014898766 -0.048311938 -0.0050411597 0.049052373 -0.0077465717
0.0025905857 -0.005147779 0.015127759 0.04554089 0.06826019 0.045472626 0.067841776 -0.008425607
-0.13511093 -0.1018243 -0.017165093 -0.061179582 -0.09015216 -0.10082125 -0.10259716 -0.08604
-0.029660648 0.029549504 0.029324366 -0.07726093 0.035959024 -0.064050704 -0.022199115 -0.035239853
-0.01869786 -0.015702264 -0.07106913 -0.06369799 -0.003911614 0.015214333 -0.01628032 0.05359866
-0.04403681 0.02432064 0.101672105 -0.048899904 0.057916712 0.026686631 -0.06268511 0.062994
0.009710239 -0.013367954 0.086138085 -0.041248076 0.0076940916 -0.018958902 0.04997669 0.018069454
0.03559535 0.02986876 -0.010466548 -0.0023502486 -0.041880436 0.023354802 0.04345276 0.037934702
-0.061068267 -0.0018004765 -0.052170373 -0.033843633 -0.028141068 0.05150556 -0.060713362 -0.008959069
0.0016672156 0.0522842 -0.048831634 -0.03874045 -0.028237868 0.066942036 -0.01039053 0.06531452
0.033556435 0.01975818 0.013167549 0.0019219673 0.029907232 0.0051922067 0.025042849 0.038199022
-0.06707453 -0.046101548 0.056303713 -0.06276482 -0.003678139 0.07998675 0.03649263 0.015080727
-0.049519375 0.018635463 -0.06696667 -0.031023555 -0.030930733 -0.012706228 0.0033488267 0.06919669
0.020525845 0.08371937 0.07624402 -0.020080961 0.06078385 -0.027620345 -0.0060385196 0.04965457
0.054672524 0.090455055 0.012691539 -0.025616422 0.013967461 -0.09514992 0.0330724 -0.0808716
-0.015402431 -0.025945036 -0.048877954 0.0048894403 0.11773219 0.02996034 -0.0035795013 -0.00031658864

model.encoder.model.tcn_block_00.block.conv1d_layer_1.bias f4 [32]
00000000: d30d 133c 6286 973d 45fd cb3c 8110 c83c
00000010: 65ab 10bd 1d90 763c c6ce a8bd 685f 093d
00000020: f982 49bd 8719 f8bc 4179 183d 23b3 483d
00000030: 14c4 72bd c564 4a3d ea4e 4d3d f0c8 21bc
00000040: 2727 543d b7ee b03d 59f9 c5bc c8f1 aebc
00000050: e568 ec3c ecab d7bd 9be8 d43b 693f 0c3d
00000060: 7eb2 6c3c 47ce a13c 40ed c73d 842f cc3c
00000070: 2fd0 973d 2b5c bcbc 143c 1e3d 5fce 95bc
0.008975464 0.07398678 0.024901042 0.024421932 -0.035319705 0.015049008 -0.08242564 0.033538252
-0.04919717 -0.03028561 0.03722501 0.048998963 -0.059269026 0.049412508 0.050124086 -0.009874567
0.05179515 0.08639281 -0.02416675 -0.021355525 0.028858611 -0.10530838 0.0064974553 0.03424016
0.014446853 0.019751681 0.09762049 0.024925001 0.07412755 -0.022993168 0.038631514 -0.018286882

model.encoder.model.tcn_block_00.block.conv1d_layer_1.weight_g f4 [32, 1, 1]
00000000: 2e2a 273f 5287 193f 7c87 173f cd94 2a3f
00000010: 2a14 263f 886e 1a3f 5b7f 113f 58cb 243f
00000020: 56a0 223f 2bc5 223f 1eef 243f 7d0b 1e3f
00000030: 817f 203f ed22 173f be98 233f 04ee 233f
00000040: 8d65 2e3f 5cc0 1d3f 2843 273f 6001 233f
00000050: 3807 0c3f 2404 183f f044 253f 9450 2b3f
00000060: 5825 263f 34d2 243f 563f 283f e66d 1c3f
00000070: b245 233f 581a 1f3f ddad 253f fab2 1e3f
0.65298736 0.5997211 0.5919111 0.666333 0.6487452 0.6032491 0.56834954 0.6437278
0.63525903 0.63582104 0.64427364 0.6173628 0.62694556 0.5903767 0.6390494 0.6403506
0.68123704 0.6162164 0.6533685 0.63673973 0.54698515 0.5938132 0.64558315 0.6691983
0.6490073 0.64383245 0.6572164 0.6110519 0.6377822 0.6214957 0.6471842 0.61991847

model.encoder.model.tcn_block_00.block.conv1d_layer_1.weight_v f4 [32, 32, 9]
00000000: 5434 13bd 55c4 8b3c 3577 3dbd 6142 fabb
00000010: 62ae 26bd 4dad 1b3d 175d 353d eabc 98bc
00000020: 7b7f 87bc 818f eabc a885 743c e765 c7bc
00000030: 8af6 16bc 5ae1 d2bb a57f a23c aab5 25bc
00000040: 3da0 273d 5b2f 9ebc 8513 da3a cd98 4e3d
00000050: 9232 e8bc 2d43 2a3d 6b63 cd3c 190f c7bc
00000060: 42a0 2a3c 7af6 40bd f80f b7bb 2459 8d3d
00000070: d722 c93d 0f04 403c b3e0 a23b 26c9 f93a
00000080: 73d5 02bd a4ee d93c c5fc 15bd fa7b 32bc
00000090: 7d19 87bd 63f1 5ebd ac97 45bd e0fc a9bd
000000a0: aac9 84bd 38ab 54bd 4ba9 87bd 7a51 e2bc
000000b0: 0c3e 6dbc 0c3f 86bd 7cdc ad3b 3ce9 813b
000000c0: 12f3 24bd 8ca2 83bc 69ce 7bbc 9ae9 d3bc
000000d0: 92e7 48bd 2d1c d43c 9aa0 a63d a84b 573c
000000e0: 9913 2c3c 5853 ad3d 3d85 3c3d ee10 c83c
000000f0: 09ac 7d3d 846e 2c3d 401b 2b3d 7c31 4a3d
00000100: 3c83 3ab9 a3b2 4d3d f51b 23bd 6baa 1bbd
00000110: 9633 b1ba 7e9c a1bc cea6 423c ca93 0abd
00000120: f6e5 ef3a b9ee 8dbc 5290 013d 086f 14bc
00000130: 49e7 3bbb e18b 123d 148e 4c3d 51ce 503d
00000140: cb59 44bd cbb2 06bd 0c22 92bc f283 92bc
00000150: 19c5 8f3c ad8e 3a3c 75c9 73bc f18b 36bc
00000160: 464f 7bbb 7743 d63c 9540 353d a70e 31bc
00000170: 835e 68bc c3dc c73c 47e4 02ba f1d3 00bd
00000180: a84d 4dbd b1b6 5a3b f950 a8bc 2eb5 19bd
00000190: 2b91 62ba 5766 163d 3c88 ec3c 654d 7b3c
000001a0: 6002 59bd aaae 493c 18b4 243c e249 8c3b
000001b0: 26f6 d4bc d757 20bc 10c3 edbc 922d 3cbc
000001c0: ff7e adbb 0c02 5bbb c692 32bd 6866 993c
000001d0: 16fc 19bd 46e0 a2ba d7d4 4e3d 3d3d b8bc
000001e0: aa0b 613d 3087 2a3d e15e 07bd f0ce 14bd
000001f0: 6ee5 95bd 92db 24bd b011 0e3c cd3d 07bd
00000200: af76 09bb 9ebf bfbc 0af3 16bd 9cbf d6bc
00000210: a40d 86bd b1f6 49bd d112 9bbb e425 1c3d
00000220: 5b2c 16bd 8270 eb3c 9320 c53b 4c05 80bc
00000230: 48c8 433c f17e 2b3d ac9c ea3c fbb2 953d
00000240: ad64 d43d eba6 8c3d 80ea 063e cf62 8b3d
00000250: d320 cf3d db1b c33d 64d2 8b3d 190f 8c3c
00000260: d4f3 ae3b 50d8 573d 9ad9 1e3d 5cc9 643d
00000270: 7351 dbbc 0f6e 493c 7d65 843d fdcc 313d
00000280: a1ef 6d3d 150d 5b3d bcbe 3abc eb12 18bd
00000290: 6e75 08bd 51d1 803c b354 b1bc a88d b13a
000002a0: ceb4 4e3c 8bbc 223d 9323 233d 7456 f93c
000002b0: ab62 8b3b b79b 053d d665 7bbc 5fd0 b5bb
000002c0: a149 813c a856 233b d6c7 b83d 44e1 303d
000002d0: 8e76 8f3c 0bd9 313b 221d 8b3b ebcd 8fbc
000002e0: 4ee3 fe3b 3baa dcbc ab1e fbb9 bdc6 883d
000002f0: bf2a 37bc 5c97 bd3c 9685 bf3c 8fb1 0cbd
00000300: df3f da3c a9de 2a3d 4f4e 673d aef4 f03c
00000310: 74f9 773d 6646 ad3c e5a1 d43b 0b3d f3ba
00000320: dd51 55bd dc6c f8bc 8f9d 5bbd bc3c 613c
00000330: 16d4 a93a fa2f 1bbd 2b9a c9bc d5cf 9bbc
00000340: 01ff 92bd 21ad b8bc 2a00 583b e874 4abc
00000350: 7dd6 b5bc 6fcd 873c 4fdc e83b 31a5 72bd
00000360: e89d f73b 3b91 7bbd f652 b13b 2526 a13c
00000370: 4c12 63bc c76c febc f06c 09bd 1550 b6bc
00000380: 6e95 87ba 49fb 52bd ddcd c6bb c8bd 82bd
00000390: 4f96 14bd fb65 b5bd 640b 0ebd 79ed acbc
000003a0: 3a65 9ebd 55a9 69bd a8ce 91bc 5199 9bbd
000003b0: a645 80bd 9d11 87bc 7797 723c 1bf9 0fbd
000003c0: 858a 67bc 2f47 59bd 8b89 3cbd a4e2 153d
000003d0: ed3a fb3c 7792 f1bc a122 1bbd 503a d0bc
000003e0: c814 5abb 59e9 97bd ac74 67bd 8b3e 41bd
000003f0: 86d0 d4bc 1f87 14bc 142c cd3c 38ca 3a3b
-0.035938576 0.017061392 -0.046256263 -0.0076373075 -0.04069365 0.03800707 0.04427823 -0.018644769
-0.01654028 -0.028632881 0.014924444 -0.024340583 -0.009214053 -0.0064355554 0.019836256 -0.010114113
0.0409243 -0.01930969 0.0016637897 0.05043869 -0.028344426 0.04156797 0.02507182 -0.024299191
0.010414185 -0.04711006 -0.0055866204 0.06901768 0.09821098 0.011719718 0.004970634 0.0019057139
-0.031941842 0.02660305 -0.036618013 -0.010893816 -0.065966584 -0.054429423 -0.04824035 -0.08300185
-0.06483777 -0.0519211 -0.06624087 -0.027626742 -0.014480125 -0.06554994 0.005305825 0.0039645713
-0.040270872 -0.01606872 -0.015369036 -0.025868226 -0.049048968 0.025892342 0.08136101 0.013140596
0.010502719 0.08463162 0.046025503 0.024422135 0.061931644 0.042097583 0.041774035 0.0493636
-0.00017787231 0.05021919 -0.039821584 -0.03800432 -0.0013519402 -0.019727942 0.01188059 -0.03383235
0.0018302787 -0.017325746 0.031631775 -0.009059675 -0.0028671792 0.03577793 0.049940184 0.05097801
-0.047937196 -0.032885354 -0.0178385 -0.017885182 0.017550038 0.011386556 -0.014879574 -0.011141763
-0.0038346811 0.026155217 0.044251043 -0.010806716 -0.01418269 0.02439726 -0.00049931224 -0.031452123
-0.050122887 0.0033373053 -0.020546423 -0.037526302 -0.00086428475 0.036718693 0.028873555 0.0153382765
-0.05298078 0.01230971 0.010052703 0.0042812685 -0.025996279 -0.009786568 -0.029023677 -0.011485474
-0.00529468 -0.0033417968 -0.043597005 0.018725589 -0.037593924 -0.0012426458 0.05049595 -0.022490138
0.054942764 0.04163283 -0.033049468 -0.036330163 -0.07319151 -0.04024846 0.008671209 -0.033017922
-0.0020975282 -0.0234068 -0.036852874 -0.026214413 -0.065455705 -0.04930753 -0.0047324677 0.038122073
-0.036663394 0.028740171 0.006015846 -0.015627526 0.011949606 0.041869108 0.02863916 0.073095284
0.10370765 0.068677746 0.13175392 0.068059556 0.101136826 0.095267974 0.06827238 0.017097043
0.005339125 0.052696526 0.03878174 0.055856094 -0.026772236 0.012294306 0.0646467 0.043408383
0.058089856 0.053479273 -0.011398014 -0.037127417 -0.033315115 0.01572481 -0.021646833 0.0013546245
0.012616349 0.03973059 0.039828848 0.030436732 0.0042537055 0.032619204 -0.015344104 -0.0055485214
0.01578218 0.0024923477 0.09022491 0.04318358 0.017512586 0.0027137424 0.0042454163 -0.017554244
0.0077785617 -0.026936641 -0.000478973 0.06678531 -0.011179625 0.023143463 0.023379128 -0.03434902
0.026641784 0.04171625 0.056471165 0.029413547 0.06054063 0.021151733 0.006489026 -0.0018557621
-0.052080024 -0.030325346 -0.053617056 0.01374739 0.0012956883 -0.03788755 -0.024609646 -0.01902
-0.071775444 -0.022543492 0.0032959082 -0.012356974 -0.022197003 0.01657745 0.007106341 -0.05923957
0.0075566657 -0.0614178 0.005411501 0.019671509 -0.013859343 -0.031057728 -0.033551157 -0.022254983
-0.0010344216 -0.051509175 -0.0060670213 -0.06383854 -0.036276158 -0.08857342 -0.03467883 -0.02110933
-0.07734151 -0.057046253 -0.017798737 -0.07597602 -0.062632844 -0.01648789 0.01480662 -0.035149675
-0.014132147 -0.0530464 -0.04602961 0.036593094 0.030667746 -0.029488785 -0.03787482 -0.02541843
-0.0033276547 -0.074175544 -0.05650775 -0.047178786 -0.025978338 -0.0090654185 0.025045432 0.002850188

model.encoder.model.tcn_block_00.downsample.weight f4 [32, 18, 1]
00000000: 5ee2 f3b9 d9b3 d2bb 5e94 bf3c abdb 033c
00000010: 7871 973b 3176 18bb 82ae 6ebc 12cc 6d3b
00000020: 2d03 473c f02c 753c d8ed bc3a 5819 ddbb
00000030: 3ae3 aebd 54bc 63bd 0405 9d3b a74b b33c
00000040: 0524 82bd 0767 1f3b b48b 763b 1a33 13bd
00000050: 8172 c8bc 1d8a ff3c 3334 b0bd 6063 0b3b
00000060: 69eb 113d ffb9 90bb 9e69 e03d 4e8a 5dbd
00000070: b0d8 4dbc 674e 33bd 80f1 363d 3d6f 473d
00000080: 464d e03c 6f00 233d f956 ef3c f2f9 da3b
00000090: be1c d23c 979d 043d 38c1 88bb 7f56 eb3c
000000a0: 7ffb 1cbd 3121 b4bc a0f5 9e3b ac56 19bc
000000b0: 310f a53c 2d33 94bc cfdb 9fbc ec95 9ebc
000000c0: 8a86 0a3d 1bb8 853d e7ae 953c e6ce 1b3c
000000d0: 17c7 243d 6186 7c3d b6eb 233d efb4 e93c
000000e0: 7837 333e 2880 103e 8c98 8cbd 27ba b9bc
000000f0: 1fda c0bc 525f 073c 9187 a03c c0ea 3f3d
00000100: 3434 60bc 289b 07bc 66a6 ca3d be9c 743d
00000110: bb8f 2dbc efe4 4539 e44f ef3c b218 ca3c
00000120: 70d1 5bbc a96a d9bd bc73 0d3d dbd6 36bc
00000130: 75d2 853d 93a0 343d 5e12 d6bd 8765 5b3d
00000140: ba47 83bd ce07 3b3b 0f69 a63d aeee debc
00000150: 3e5e b7bd b306 4fbc feff 95bc ff2c a5bc
00000160: 081b adbc dcab 6b3d ea10 57bc 4b53 243d
00000170: d8da 3cbd 8d55 acbc a90b bfbc 8f15 2c3d
00000180: 4311 183d b2bc 9a3c 0155 083d 0984 bdbc
00000190: 6bfd d63b a359 583c 5ad5 ae3b f42d 933d
000001a0: e916 133d 9f34 293d 1466 563c bcd0 a73d
000001b0: 0967 76bc a72f d63c cdd5 be3c 72a2 9ebc
000001c0: cc45 44bd 6ca6 25bd 57a5 0d3b aff7 8cbb
000001d0: 222e 75bc a677 9eba 468e 4bba af0c f5ba
000001e0: 1092 703b 89f7 4e3c 5dbf b63c eb8c d23b
000001f0: d9ca 3b3c a9dd 01bd a102 893c ed23 bb3c
00000200: dddd 51ba ba0e 243c e9f8 1dbd d020 073d
00000210: 9812 543d 8acb 303c 7d5d 2e3c 4a1b 26bc
00000220: 1e24 9abc b288 c93b c919 6d3d a24a bc3d
00000230: 7610 0e3c 8fd2 b3ba 1fe2 243d a2f1 d13c
00000240: 9f0f d63a 8ae3 cdbb c2a7 04bd 7a19 a33c
00000250: 259b 85bd a84d ac3c 696f 633d e47a 3439
00000260: c0eb d43c e969 b0bb 9361 03bd 1260 f83b
00000270: ba4e 553d 4b39 8d3d dc0f 2fbc 8b67 c4bb
00000280: 338c 723c 73cd aa3c 99b4 a23d abd7 143d
00000290: 64d3 b03d 9790 05bd ea1a 90bc 99d3 51bd
000002a0: f8fe 07bc 4723 0fbd 5cfa b5bc 1e10 74bb
000002b0: 8cfc 1a3d a539 8abb 87d8 de3d 2780 b63d
000002c0: cc56 7c3d 56a8 863d 5467 b03d 9fc6 a63d
000002d0: 675a a1bc 9a11 e2bc 4772 afbc 65e9 cf3c
000002e0: 655b a7bc 9441 3fbc 382a 43bc de4b 21bd
000002f0: fbff b23c ecb9 33bd 4291 ad3b 6d00 18bd
00000300: 2a28 1fbc 8f14 813c ec26 d6bc 6aff 0ebc
00000310: 94e0 0dbd 8cc0 e03c 48a7 0c3d 360e a83c
00000320: 4bf0 f4bc b401 c2bc 9b57 d9bc 8b79 fe3c
00000330: 5e5d b5bc 5b49 933c b325 09bc 41f8 1e3c
00000340: e95c 0bbd 2de0 41bd 3896 be39 82b5 b8bc
00000350: e0e4 cbbb dab3 50bc 32c1 ebbc ec37 00bd
00000360: be19 82bc 7c34 20bc 2ab8 ab3c fe3d 1a3d
00000370: 3e41 17bd 7e3a 6c3c 13fe a4bc b4d3 8ebc
00000380: 263d 11bb 615e 183c c343 103d b8ed 0ebd
00000390: 6668 053d 7f58 853c 4ebe f03c a61f 8f3c
000003a0: 74c4 f3bc 3155 c23c 2e65 263d 69ab 47bc
000003b0: c9d6 03bd dadf 55bc 35d9 83bc 20c2 3e3c
000003c0: 2500 38bc d272 3a3c c83e 14bc b6cb d7ba
000003d0: bdfa c9bb b5ed 23bc 668e 0ebd 6657 b9bc
000003e0: f4f0 b0bb a28d cf3b d6bb 24bc e3a3 c0bd
000003f0: df80 813d 791b 44bd 71f7 883c abd3 fcbc
-0.00046517228 -0.006430131 0.023386177 0.008047978 0.004621681 -0.0023263807 -0.014567973 0.0036284965
0.012146753 0.014964327 0.0014414145 -0.006747406 -0.08539434 -0.055599526 0.0047918577 0.02188666
-0.063545264 0.0024322884 0.003761989 -0.035937406 -0.024468662 0.031193787 -0.08603706 0.002126895
0.035624895 -0.0044167037 0.10957645 -0.054086976 -0.012563869 -0.043775942 0.044663906 0.04869007
0.027380597 0.039795335 0.029216276 0.006682628 0.025648471 0.032376852 -0.004173424 0.028727768
-0.038325783 -0.021988483 0.004851058 -0.009359043 0.020148845 -0.018090809 -0.019513993 -0.019358598
0.033819713 0.06529256 0.018271876 0.009509778 0.04022893 0.06165159 0.040019713 0.028528659
0.17501628 0.14111388 -0.068650335 -0.022671772 -0.023541508 0.008262472 0.019595893 0.046854734
-0.013684321 -0.008276738 0.09895019 0.059719793 -0.01059335 0.00018872668 0.0292129 0.024669979
-0.013416633 -0.10616047 0.0345342 -0.011159624 0.06534282 0.044098448 -0.10452722 0.05356362
-0.06410165 0.0028538588 0.08125507 -0.02721342 -0.08953522 -0.012635875 -0.018310543 -0.020163057
-0.021131054 0.057536945 -0.013126591 0.040118497 -0.046107143 -0.021036888 -0.02332099 0.042012747
0.037125837 0.018888805 0.03328419 -0.023134248 0.0065609715 0.013204965 0.005335492 0.07186499
0.03591052 0.04130995 0.013085861 0.0819411 -0.015039214 0.02614577 0.023295308 -0.01936457
-0.047918126 -0.040441915 0.0021613443 -0.004301987 -0.014964612 -0.0012090101 -0.0007765036 -0.0018695797
0.0036708154 0.012632259 0.022308046 0.00642549 0.011461937 -0.031705532 0.016724886 0.02284428
-0.00080057775 0.010013277 -0.038567457 0.032990277 0.051775545 0.010790715 0.0106424065 -0.010138342
-0.01881605 0.0061503286 0.05788592 0.091939226 0.008670917 -0.0013719368 0.04025471 0.025627915
0.001633156 -0.0062832283 -0.03238655 0.01990961 -0.06523732 0.021033123 0.05552617 0.00017211918
0.02599132 -0.005383719 -0.032075476 0.007579812 0.052077033 0.068956934 -0.0106849335 -0.0059937886
0.014803934 0.020849919 0.079446025 0.03633849 0.086340696 -0.032608595 -0.017590959 -0.051227186
-0.008300535 -0.034945752 -0.022214107 -0.0037241052 0.037838504 -0.0042182975 0.10881143 0.08911162
0.061606213 0.06575076 0.08613458 0.08143353 -0.019696428 -0.027596284 -0.021416796 0.025379846
-0.020429322 -0.01167335 -0.011911921 -0.039378993 0.021850577 -0.04387848 0.005296857 -0.03710978
-0.009714166 0.015756873 -0.026141606 -0.008727888 -0.034638003 0.027435564 0.03433922 0.020514589
-0.029899737 -0.023682453 -0.026531031 0.031063816 -0.022139248 0.017979315 -0.008370805 0.009702743
-0.034024153 -0.04733293 0.00036351546 -0.022547487 -0.0062223524 -0.012738192 -0.028778646 -0.03130333
-0.015881415 -0.009778138 0.02096184 0.037656777 -0.036927454 0.0144182425 -0.020140683 -0.017434932
-0.0022161691 0.009299845 0.035220873 -0.034894675 0.032570265 0.01627755 0.02938762 0.017471146
-0.029756762 0.023722263 0.040623836 -0.012186863 -0.032187257 -0.013053859 -0.016094783 0.011642963
-0.011230503 0.011379914 -0.009048171 -0.0016463909 -0.0061639235 -0.010005404 -0.03480377 -0.022624683
-0.0053998176 0.0063340226 -0.010054549 -0.09406259 0.06323408 -0.047877762 0.016719552 -0.03086265

model.encoder.model.tcn_block_00.downsample.bias f4 [32]
00000000: 6234 c23d af20 2bbe e38b 563e 62cc 3e3e
00000010: 9f81 3ebe 2ddd 85bd cc8f 83be fb88 97bc
00000020: 7602 e3bc 613a 45be 9ce4 e0bd 0bc0 623c
00000030: cce5 883e 205a 293e e852 643e a0fc a03c
00000040: 8f6d 00be 4c70 253e 6b48 69bd f310 3d3c
00000050: 35cb 8e3e 4aa1 3fbe 0ca1 223d 29ef 48be
00000060: 6d5b 86bd ef21 19bd 33ab a43d 815a 2b3e
00000070: e018 503e 215c 4e3e 6fae 0c3d d0e8 4d3e
0.094826475 -0.16711687 0.209518 0.18632653 -0.18604134 -0.065363266 -0.25695646 -0.018497935
-0.027711134 -0.19260551 -0.10981104 0.013839732 0.2673782 0.16538286 0.22297251 0.019651711
-0.12541793 0.16156119 -0.05695383 0.011539686 0.2788941 -0.1871387 0.039704368 -0.19622482
-0.06560407 -0.037385877 0.08040466 0.16733743 0.20321989 0.20152332 0.03434604 0.20108342

model.encoder.model.tcn_block_01.conv0.bias f4 [32]
00000000: faa4 803d bbb5 0d3d fd11 3f3d 660c 6a3d
00000010: 05dd eb3d 5a2e 453d c26d 153c c055 4c3d
00000020: 41c5 35bd d54b 213d 72f1 a83c bd04 0d3d
00000030: 06b5 083d f6ff 8a3d 8e3b edbb a55a f4bc
00000040: 3e97 2a3c 330c 753d 88c0 203d ac82 1a3d
00000050: 6699 98bb d7c8 0b3c f15e 0b3d 91a5 3fbd
00000060: 46ae 743d af72 8f3d 51ce 343d 3047 8ebb
00000070: de18 14bd 4a5e 903d ca89 6a3d ce86 24bc
0.06281467 0.03459714 0.046648014 0.05714073 0.115167655 0.048139907 0.009120407 0.049886465
-0.04437757 0.03937896 0.020622943 0.034428347 0.033375762 0.06787102 -0.0072397655 -0.029828379
0.0104120355 0.059826087 0.039246112 0.037722275 -0.0046569584 0.008531771 0.03402609 -0.046788756
0.059736513 0.07004296 0.04414207 -0.0043419823 -0.036156528 0.07049234 0.057260312 -0.010041906

model.encoder.model.tcn_block_01.conv0.weight_g f4 [32, 1, 1]
00000000: 0d78 3f3f 71a9 303f cf19 2f3f a056 243f
00000010: 14ae 303f 141a 253f 7a74 253f 140f 323f
00000020: 779a 4d3f dda1 2a3f d844 243f ef0c 203f
00000030: d435 2d3f 226c 3b3f 702b 2e3f 608a 263f
00000040: 3fa0 233f 1888 233f 6b49 253f 689a 333f
00000050: 3552 2f3f 644d 2f3f fd39 303f d1bf 263f
00000060: c0c5 2d3f a10e 413f 5722 223f 4ca8 213f
00000070: 2b2a 1b3f 37ca 2e3f 8025 3a3f 6592 3c3f
0.7479256 0.6900855 0.68398756 0.6419468 0.6901562 0.6449292 0.64630854 0.6955426
0.8031382 0.66653234 0.6416755 0.62519735 0.6766026 0.7321187 0.6803503 0.65054893
0.6391639 0.6387954 0.6456515 0.7015748 0.6848481 0.68477464 0.68838483 0.6513644
0.6787987 0.75412947 0.6333365 0.63147426 0.6061122 0.68277305 0.7271347 0.7366088

model.encoder.model.tcn_block_01.conv0.weight_v f4 [32, 32, 9]
00000000: ec5a e0bc 3dc3 1cbd 7e34 ed3c f33d ce3c
00000010: 93b8 c73c 37b2 413d df16 60bc 813e 8d3b
00000020: 444f 093a 6020 dc3c beab 5e3c ba08 2e3d
00000030: 5182 57bb a2ea a33c 295b f6bc 94df 5cbd
00000040: 2890 8bbc b10a 09bd 98b3 9c3c e582 0dbd
00000050: 96e8 213c 5a82 18bd a56c a43c bbb2 04bd
00000060: 954c a0bc d8b9 febc 2578 2fbd 4249 1a3d
00000070: 7b51 0f3b d258 0dbc 73c4 4b3d efcc c43c
00000080: bbce 023d 1baf 97bd 8838 8cbd bbac d2bc
00000090: fa86 f93c 388d 0e3d 5847 103d 0653 143d
000000a0: 6e98 133d 7eed 183d 48bf 053d afae 023d
000000b0: 0952 fb3c 26ab 86bb 4759 983c 175b 3c3d
000000c0: df21 493d a43c 983b 2d1c cfbc 94bb 34bd
000000d0: a3d3 53bc 900c 3fbd 65f8 a0bc c7d0 6cbd
000000e0: b17a e7bc 3b25 0abd b836 cabc 4f07 0cbd
000000f0: b718 e9bc b0c7 8ebc 5947 73bd 5540 603c
00000100: c789 fe3c 390e 753c 7645 88bc 4eea aa3c
00000110: 10f0 813b 1e47 a1bc 0058 47bc 5438 b8bb
00000120: 6475 333c bfe4 4b3d 8cd0 2b3d 6732 693c
00000130: 10ae 263d 11ff 3b3c 5728 58bd 8abe fdbc
00000140: e39a 43bd 4e34 933d 0aa5 3f3d 0e18 743d
00000150: 4475 7bbc 1319 663c 829d 5ebc d147 97bd
00000160: 093c d8bd fe55 b0bd c9f9 6bbd 8f72 58bd
00000170: 0de3 1ebd 6230 3abc a2d7 633b 0d60 213c
00000180: 782d 813c a78a 16bc 032f bc3c cfc8 3cbc
00000190: e9bf 80bc 148e 1cbd a139 f13b 46c0 88bc
000001a0: 37ce a03c b2d7 a3bc 2576 193c 00c3 e23c
000001b0: 043a 213d 44d0 0b3d e19a 1bbd 614b 70bc
000001c0: 8c6a 43bc d8f0 9dbc 4c1f f33b 883c 93bc
000001d0: 0cd9 cebb 678b 13bc 858c b23b 57d9 0aba
000001e0: 18e5 29bd 08aa f53c fd52 2fbd 1564 3a3d
000001f0: b934 b13a 242d 473d 05d0 783d dc5a 973d
00000200: 265c d43c aa01 573d 8014 c4bc 03f0 593a
00000210: 3f5a ebbc 5837 65bb 8a6c 9639 ed35 6a3c
00000220: 69f7 fabc b206 953b fffb bd3c a264 e43c
00000230: 8054 3d3d d189 8ebc d102 1a3c ec89 31bd
00000240: f3fe f13d 421b 8f3d fa5e 903d 3a7b 363d
00000250: 623a c0bc f871 c4bc aece 64bd 4df0 e3bc
00000260: 967b 68bd f9d4 c2bd 7343 7fbd a4f3 e7bb
00000270: e10f 58bd dc23 0d3d 14b0 643d c283 693c
00000280: 86ef 5b3d 9184 873d 04d0 193c b3fa df3c
00000290: 1fc9 f43c 4a76 1a3d c5cc 053d a62d e83c
000002a0: e32a af3c c6ca ea3c 2711 d03c 90a7 7d3c
000002b0: 6449 9cbb 5c77 34bd 78d8 e2bb 567b f139
000002c0: 82cc 7cbc e5d6 4ebc 4513 283c 0aa3 a23a
000002d0: 061b 4fbb f416 203d 2103 bebc d5a5 503d
000002e0: 0dfd 0abc 8cd3 173d 79db ee3b a50b 9a3c
000002f0: 6d3d 80bd 41fc a8bc 6c45 a4bb 0f9a a53a
00000300: 1428 493c 0a53 6a3b c4d1 1c3c f3c5 fb3c
00000310: 36fc a43c c339 ef3c c142 cabd ea0b c0bd
00000320: c24b e1ba 597d e7bc a4ff 6d3c f5c1 983c
00000330: 064c 653d 6ff4 273d 1151 b13d 64c4 31bd
00000340: d500 ebbc b3a6 87bc 8577 1fbd e4b3 e93b
00000350: c99a 95bc 04de 2fbc 01d6 b83b bd87 84bc
00000360: 1e99 483d 4ceb 9b3b 68ae 01bc dd5e 7b3c
00000370: 25a2 9bbc aa26 0ebd 3f41 4abd 2aa9 fabc
00000380: 10e9 b1bd cc39 12bd 6c64 03bd ffee e9bb
00000390: 6dd1 4c3c 48bd af3c 77d9 1cbc f519 3c3c
000003a0: 7850 e9ba 4197 263d 288e b93a 3751 e23c
000003b0: 05be 7bbc 090c 2c3b 7821 273d 5a42 743d
000003c0: 8b3e 923d 2a7d 4d3d 004e 493d 9d29 22bd
000003d0: 4cfc c8bc e305 983b e356 c73b 4d27 8fbc
000003e0: 62ff 63bd 3af3 683c beba 42bd 4d27 3b3c
000003f0: 9b27 50bc 5b18 b83c 420e bfba 9a79 57bd
-0.027387105 -0.03827213 0.028955694 0.025176024 0.024380004 0.0472891 -0.013677328 0.0043104296
0.0005237947 0.026870906 0.013590751 0.04248879 -0.003288407 0.020009343 -0.030072765 -0.05392416
-0.017036512 -0.03345746 0.019128606 -0.03454866 0.009882113 -0.037233688 0.020071337 -0.032397013
-0.019567767 -0.031094477 -0.042839188 0.03766752 0.0021868635 -0.008627133 0.049747895 0.024023501
0.031935435 -0.074064456 -0.0684672 -0.02571713 0.03045987 0.034802645 0.03522429 0.03621199
0.03603404 0.037335865 0.032653123 0.031904873 0.030678766 -0.004109758 0.018597258 0.045985308
0.049104568 0.004645901 -0.02528199 -0.0441242 -0.012928876 -0.04664284 -0.019649694 -0.057816293
-0.028256746 -0.033726912 -0.024684295 -0.034186658 -0.028454168 -0.017429203 -0.059394214 0.013687213
0.031071557 0.014957004 -0.016634684 0.020863678 0.0039653853 -0.019687232 -0.012166977 -0.005621949
0.010953281 0.049778696 0.041946933 0.014233208 0.040693343 0.011474387 -0.052772846 -0.030974645
-0.047755133 0.07187711 0.046788253 0.059593253 -0.0153477825 0.014044064 -0.0135873575 -0.07386745
-0.10558326 -0.08610152 -0.05761126 -0.052843627 -0.03879075 -0.011364074 0.0034765978 0.00984956
0.015768752 -0.009188331 0.022971636 -0.011522486 -0.01571651 -0.038221434 0.007361606 -0.016693246
0.01962958 -0.020000312 0.009366547 0.027680874 0.03936197 0.034134164 -0.0379895 -0.014666409
-0.011927258 -0.019279882 0.0074195024 -0.0179732 -0.006312495 -0.009005404 0.00544888 -0.00052966684
-0.041478246 0.029988304 -0.042803753 0.045505602 0.0013519741 0.048627034 0.060745258 0.07390377
0.025922846 0.05249182 -0.023935556 0.00083136576 -0.028729556 -0.0034975614 0.00028691097 0.0142950835
-0.030635552 0.0045479173 0.02319145 0.027880017 0.046223164 -0.0173997 0.009400086 -0.043344423
0.11816206 0.06987621 0.07049365 0.04455111 -0.02346534 -0.023980126 -0.055861168 -0.027824545
-0.056758486 -0.095132776 -0.062320184 -0.007078605 -0.05274952 0.034458026 0.055831984 0.014252605
0.053695224 0.06617082 0.009387974 0.027341222 0.029881058 0.037710465 0.032665987 0.02834208
0.021382755 0.028661143 0.025398804 0.015481845 -0.004769491 -0.044059142 -0.0069227777 0.00046058994
-0.015429618 -0.012624477 0.0102585 0.0012408209 -0.00316018 0.03908439 -0.023194851 0.0509394
-0.008483184 0.03706698 0.007289347 0.01880438 -0.06261716 -0.020628097 -0.0050131585 0.0012634414
0.012277622 0.0035755062 0.009571496 0.030734038 0.020139795 0.029202348 -0.098760135 -0.093772724
-0.0017188715 -0.028258013 0.0145262815 0.018647173 0.055980705 0.041004594 0.0865804 -0.043400183
-0.02868692 -0.01655898 -0.038932342 0.0071320403 -0.018262284 -0.010734085 0.0056407456 -0.016178006
0.04897415 0.004758274 -0.007915117 0.015342441 -0.018998215 -0.03470484 -0.04937863 -0.030598242
-0.08687031 -0.03569965 -0.03207819 -0.0071390863 0.012501103 0.021452561 -0.009573332 0.011480798
-0.0017800471 0.04067159 0.0014156746 0.027626617 -0.015365128 0.002625229 0.040803403 0.05963359
0.071408354 0.050168194 0.049146652 -0.039590467 -0.024534367 0.0046393736 0.0060833558 -0.017474795
-0.055663474 0.014218146 -0.047541372 0.011422944 -0.012704755 0.022472551 -0.0014576393 -0.052606203

model.encoder.model.tcn_block_01.conv1.bias f4 [32]
00000000: 835b 963c a760 49bc 03f5 7b3c 7eb6 bb3c
00000010: 1b5f 353d c6d9 a53d 0581 243d 5f75 ad3c
00000020: 68d9 f7bb bd8f 393d 84cc 843d a3ae dbbc
00000030: 9347 3b3b 2a3a 773d b2f5 8c3d c950 5e3d
00000040: 3355 66bd 104f 093d fda5 363d 631b bbba
00000050: 0055 7b3d 3ca9 093b e28c 493d 05e4 9f3d
00000060: 3b9c 66ba 1a24 e83c 92be a73c 97cd cd3b
00000070: 6306 b3bd 1d6b 44bc aa9d 64bd be09 7d3d
0.018354183 -0.01229111 0.01537824 0.022914167 0.044280153 0.080981776 0.040162105 0.021174131
-0.0075637586 0.045303095 0.06484321 -0.026816672 0.0028576597 0.060358204 0.068828 0.05427626
-0.056233596 0.033522666 0.044591893 -0.001427513 0.06136036 0.0021005413 0.049206622 0.07807163
-0.0008797084 0.028337527 0.020476613 0.0062806117 -0.087414525 -0.011988428 -0.055814423 0.06177687

model.encoder.model.tcn_block_01.conv1.weight_g f4 [32, 1, 1]
00000000: d6eb 343f 98a2 2f3f 5a0b 333f 7bd8 2c3f
00000010: 46a1 4c3f 9f35 283f 4d0a 293f e456 233f
00000020: b371 2f3f 47d1 253f 66cb 263f 482c 2d3f
00000030: 50d0 2d3f 0074 263f bcb6 303f 69db 1d3f
00000040: 38a2 393f 03e7 2e3f d6c3 243f 095a 323f
00000050: fe4b 203f 261b 413f 40e4 2e3f 8bb1 243f
00000060: 6560 233f a89d 323f 25ad 2f3f 60d5 3c3f
00000070: 34fc 2a3f 46dd 2c3f 222f 333f cb4e 283f
0.7067236 0.68607473 0.69939196 0.67517823 0.79933584 0.6570682 0.6603134 0.6380446
0.68532866 0.64772457 0.6515411 0.6764569 0.67895985 0.6502075 0.6902883 0.6166292
0.7251315 0.68321246 0.6436132 0.6966863 0.62615955 0.7543205 0.6831703 0.6433341
0.6381896 0.69771814 0.6862357 0.73763084 0.6679108 0.67525136 0.69993794 0.6574523
